params/model_3_trained.npy (npy, 728 bytes, 1 tensors)

array f8 [75]
2.215486794303383 1.5673491285834817 -1.5740952338697947 1.6411606813015696 -0.0032122083197467103 -0.5631924098374536 0.094298679664093 3.2346981296066124
2.250073525571278 0.46074574190109263 -0.0010536110799382096 1.0598613087030373 1.3604733165555698 -0.004846048109185227 1.0414297344960093 1.5704383429660442
-2.2851905461936193 0.7039539322907062 -3.131674450404615 -0.8048029792262882 1.5770447842021431 -1.56056605426967 1.573938341051415 -1.5799011870817012
-1.9320701427016695 -0.03509772326784479 -1.1903985653675173 0.7603508607860425 3.0975974999174936 -1.8349924867152116 -1.8658835091919423 -0.8226003381563098
1.2647084464811569 1.040261537527997 2.037015380687286 -2.854240402411417 1.5711122088088885 1.5713638605131521 -1.1068669627366372 -0.04863458997603715
-0.002058599179390186 -0.06534092116400698 0.28651414418746235 -1.5699190991394998 0.5820871805393155 1.5184851763480822 -1.5702474852032942 -1.5696507901508336
-0.014615299729947278 -0.6190745697470231 -3.15825675487864 -1.6874892224887126 1.5807834901312563 1.5717523888195377 0.7415959000278355 1.5731720739174446
1.5687432992378596 -0.24964157114261454 -0.0018026976910876103 -0.8603197786234849 1.179546686716678 0.6157118883736314 -0.2693014080676486 -0.5921088028210686
1.404385852674158 0.6174824212465848 -2.4978890336973616 -0.3591848012356201 0.5356678004955219 -0.2904227338166453 -0.09803085996884976 -1.7516664099834207
0.9202302244381166 -0.8360908856441636 1.2697880622745585
00000000: f505 f223 51b9 0140 e8e1 0aae dc13 f93f
00000010: f129 e47b 7e2f f9bf babd dab3 3142 fa3f
00000020: 62cf cc35 7d50 6abf ef6e b316 ac05 e2bf
00000030: 3098 3651 f523 b83f febd b869 a9e0 0940
00000040: 7964 6f8c 2600 0240 fe21 4fb5 db7c dd3f
00000050: 96ec 6248 2a43 51bf 0dce b221 31f5 f03f
00000060: 3ffd 1aab 7fc4 f53f 16fa 4c22 73d9 73bf
00000070: 8ee0 ab39 b2a9 f03f 08c7 b6f4 8320 f93f
00000080: 623d 28fb 1148 02c0 a888 a265 ca86 e63f
00000090: 1ba7 9155 ab0d 09c0 4102 702d f2c0 e9bf
000000a0: fc9b c74f 933b f93f 3b60 651c 14f8 f8bf
000000b0: f9c7 4bf8 d92e f93f fad6 9677 4647 f9bf
000000c0: 24b5 c761 c2e9 febf 53eb 322b 54f8 a1bf
000000d0: 4457 b75d df0b f3bf d2f7 1154 cb54 e83f
000000e0: 3689 b232 e1c7 0840 8f8f ed14 215c fdbf
000000f0: 7100 a2aa a8da fdbf a2ea c1f1 bd52 eabf
00000100: d9c8 89ec 3e3c f43f c382 2f48 e9a4 f03f
00000110: cf01 4cb8 ce4b 0040 383b fafd 7bd5 06c0
00000120: 53e3 328e 4623 f93f 2053 706e 4e24 f93f
00000130: 98a0 df21 bab5 f1bf b98a cd0a a2e6 a8bf
00000140: b36d d504 32dd 60bf ad6b 7dbf 2eba b0bf
00000150: e019 c86b 3f56 d23f 0cb8 427d 631e f9bf
00000160: 68ca 7a4b 75a0 e23f 4d03 be1c b74b f83f
00000170: b630 b9d3 bb1f f9bf 0b6a 9d25 4a1d f9bf
00000180: 5611 e452 a0ee 8dbf d728 db78 75cf e3bf
00000190: 4a99 141e 1c44 09c0 5610 efb2 f4ff fabf
000001a0: 4eba 02a1 e34a f93f 953c 36d5 e525 f93f
000001b0: 9ff3 2e53 27bb e73f 724b 077b b62b f93f
000001c0: 63bb e092 9219 f93f 80c9 e347 41f4 cfbf
000001d0: 43cf 2de8 0f89 5dbf 4446 2958 bd87 ebbf
000001e0: 46da b858 6cdf f23f 3e57 0a6b e9b3 e33f
000001f0: 10b5 1af9 3b3c d1bf 5649 f928 8ef2 e2bf
00000200: 9635 c34c 5d78 f63f be7c a37e 6ac2 e33f
00000210: 3f23 e63e adfb 03c0 71be a13f e2fc d6bf
00000220: abc0 94cc 3024 e13f 5279 f03b 4996 d2bf
00000230: 91a1 90e9 8c18 b9bf 9c16 865b d306 fcbf
00000240: 1414 d8a7 8672 ed3f 5669 4aac 41c1 eabf
00000250: 8620 8549 0d51 f43f
