params/model_5_initial.npy (npy, 728 bytes, 1 tensors)

array f8 [75]
000000 c0 a4 30 07 56 0a e1 bf 02 f5 2b 7c e1 77 eb 3f
       -0.53251172451305 0.8583838868359239
000010 6d 3c e0 a1 f7 50 e0 bf 2d 0a 18 04 43 99 f2 bf
       -0.5098837052954771 -1.1624174270551848
000020 71 88 c8 89 83 c4 c1 bf 83 53 cf ee 9f 6a 01 c0
       -0.13880962588979487 -2.1770628602047863
000030 98 8e e0 02 db 0e 84 bf f9 23 4f 91 92 80 e4 bf
       -0.009793959641746938 -0.6406948888844674
000040 36 71 ad 8e 4d 7b c3 3f 24 ce 4e 80 30 ae fc bf
       0.1522004076640628 -1.7925267231011128
000050 e5 e8 98 44 23 bb db bf 5b 05 64 40 ec 01 c4 3f
       -0.43329698275523604 0.15630868095471837
000060 2d a0 d9 2a 7f 2f fa 3f 8f 48 7f bb 9f 04 d2 bf
       1.6365958856422467 -0.28153222379945303
000070 03 fd 90 2f 14 44 c2 bf 21 60 23 0e e7 11 f2 3f
       -0.14270260164810375 1.1293707420609354
000080 6a 58 90 a9 ea e2 fc bf f2 74 e4 ca 82 41 d0 bf
       -1.805399572714601 -0.25399846852981434
000090 9c e8 03 02 1d fd c8 3f 1c fb fe 01 56 bc e2 3f
       0.1952244052734543 0.5854902304634808
0000a0 71 9d d6 05 71 34 e8 bf ef 37 9e 27 d2 02 ec bf
       -0.7564015497236324 -0.8753443502225745
0000b0 3b 74 6e 93 08 3f ef 3f 91 fe dc 46 55 0f fb 3f
       0.9764445189972614 1.6912434356781072
0000c0 f6 ef ab 33 b8 32 f7 3f 66 23 f3 0e d6 fe d8 3f
       1.4498826998160417 0.39055396518647567
0000d0 b5 09 4b 8d 7d cb f7 3f 4f 94 e6 4c 66 fc f2 bf
       1.4871802825224283 -1.186620998757707
0000e0 60 ba 8b 9c 56 9d ba 3f f2 2a 94 18 16 74 d7 bf
       0.1039632923309255 -0.3664603462245132
0000f0 f5 b4 d6 b3 c1 11 b5 3f 79 1a 0e 85 18 17 db bf
       0.08230219498246412 -0.42328465455685876
000100 dc bd 00 88 2b 1c 03 40 c2 22 af 6d de 1c a2 bf
       2.3887549042917566 -0.035376501931357676
000110 5a a8 55 83 32 9f cb bf 44 39 de 6c f9 a0 c7 3f
       -0.21579581654379149 0.18460004630873972
000120 b8 4d a2 a8 7c f6 dc bf 19 f9 ee 7f 3d ec b4 bf
       -0.45254436939395815 -0.08172973988891775
000130 0c 01 ef 26 92 b7 d6 bf e6 ca 21 6f cc 42 f0 3f
       -0.3549542789660485 1.0163082448095166
000140 70 31 93 40 8d 70 e3 3f 85 7a 04 dd 45 3e dd bf
       0.6074892293195671 -0.45692583640804
000150 92 58 0f 00 51 82 d8 bf 2f 71 fb bf e3 d9 ea bf
       -0.38295388227323557 -0.8390978574421178
000160 72 0e c1 3c ad 2a 03 40 17 55 26 42 8f e4 e6 3f
       2.395838236466994 0.7154003421771077
000170 af 8f 5f 30 4b f1 a9 3f d3 e1 4b c4 c9 ae e0 bf
       0.050669049887602007 -0.5213364442743632
000180 32 04 4f 8c 23 bc d1 3f ca b6 ba b3 79 b2 d6 bf
       0.27710808469788895 -0.3546432738465738
000190 e1 45 9f 68 9d 52 df bf 2e 18 b1 b9 3b c1 f1 bf
       -0.4894174119663984 -1.1096760991654366
0001a0 ce 89 87 98 17 1c 65 3f 1b 0c 0d a9 d9 d1 fa 3f
       0.0025768719535659073 1.6762329677155836
0001b0 90 59 7e 59 d7 4e df bf 3c 88 d2 77 c4 eb ed 3f
       -0.48918708552937407 0.9350302067071037
0001c0 82 9a 69 38 e6 a0 ca 3f 9f 9d 79 0e ed ab e3 3f
       0.2080352569057205 0.614737060805897
0001d0 f5 83 a3 18 a4 dd f9 3f e5 2b ef 8b 0e d9 fd bf
       1.6166115724993209 -1.865492388361184
0001e0 30 a2 fb d7 91 f1 d9 bf 98 94 51 6f db 50 e0 bf
       -0.4053692445000108 -0.5098702596848339
0001f0 a9 e0 90 5c 92 3f f2 bf 61 38 42 8c 1c ff f4 bf
       -1.140520440660149 -1.3122830847601323
000200 eb 64 2e c5 dd c3 f9 3f c6 df 0b 4b 27 ce d4 3f
       1.6103189184562392 0.32508261040447584
000210 ac 0d 4e ad 64 2d eb 3f df 7b 1b 40 76 d8 70 bf
       0.8492911705838444 -0.00411268416948382
000220 37 9c d8 a1 ff 1f a3 bf 62 8a 79 82 59 71 d4 bf
       -0.03735350466404735 -0.3194183134238867
000230 c2 3b ad 83 47 6a e6 bf a3 f5 da 31 1c 4c d3 bf
       -0.7004735538301861 -0.3015203940265911
000240 91 6a 9e ea ab 00 ea bf 81 93 e7 fb 24 37 b9 bf
       -0.8125819761656478 -0.09849768781675829
000250 64 32 c8 b2 b0 ff e7 bf
       -0.749962186034804
