params/model_3.npy (npy, 728 bytes, 1 tensors)

array f8 [75]
0.2633679052292085 -0.22307185709662505 -0.15755769479010187 1.788596695919576 -0.3636512164168376 -0.21139805146586182 -0.8968449243614444 2.0650372408732633
1.2858896849091086 0.04103449940850319 1.1392452584887243 0.6021262806357892 1.1050920449779684 -1.0578040838980656 0.3649847258730912 0.07856315050614172
-0.8919190711695589 0.9363844920643555 -1.8261135890628983 -0.8705654620141633 0.737055905903487 -0.8047144919768716 0.8862594667060495 0.7409349109584085
-1.4073765316292328 -0.8108845482230829 -0.9814014794780763 0.08390585216307699 1.1330011539966103 -0.7506570676647134 -0.6470388234346679 -2.4552814144708788
0.7459940358005137 -0.5360763687071005 1.3068645767273375 -0.751931039670133 1.4310741160802873 0.912921567654265 -0.40803937905190246 1.0903513967173162
-0.2316783359206515 -0.13955441642260602 1.3708495632379845 -0.5948921992778049 0.3085176965519488 1.4399707989510346 -1.0119433028325406 0.6759194513286837
0.6728213910268248 -1.0045575697250677 -2.2502436525501976 -2.213003862957774 0.8905395546809267 0.5079345381190696 -0.12795000952929372 -0.4808566385040701
0.8122459992817948 -0.52321105513008 0.6304207142500997 -0.25599377977026316 1.179546686716678 0.6157118883736314 -0.2693014080676486 -0.5921088028210686
1.404385852674158 0.6174824212465848 -2.4978890336973616 -0.3591848012356201 0.5356678004955219 -0.2904227338166453 -0.09803085996884976 -1.7516664099834207
0.9202302244381166 -0.8360908856441636 1.2697880622745585
00000000: 6ea1 f10e 05db d03f a9a9 715d 9e8d ccbf
00000010: 49a6 2dbd d92a c4bf ef54 ab91 179e fc3f
00000020: c64c 6ac0 0f46 d7bf c2f3 bd62 170f cbbf
00000030: 73e9 7620 f4b2 ecbf f994 b43e 3285 0040
00000040: 822c ef0f 0193 f43f ba3b ef51 7902 a53f
00000050: 6f50 753c 593a f23f 1692 6c55 9e44 e33f
00000060: 8e00 04ff 74ae f13f cdad 9ef9 c3ec f0bf
00000070: 6186 4ae5 e85b d73f 0138 18f2 b61c b43f
00000080: 3143 2bdd 998a ecbf 3dbc 3c9c dcf6 ed3f
00000090: bce6 fce1 c237 fdbf 4318 8c19 acdb ebbf
000000a0: 6fbb 6544 f695 e73f aa0d 359b 38c0 e9bf
000000b0: 76bb 28d0 3c5c ec3f 40fe 6021 bdb5 e73f
000000c0: 6216 0841 9d84 f6bf 6265 ee26 c4f2 e9bf
000000d0: dc56 5313 a467 efbf d7c1 fb9a da7a b53f
000000e0: 64ee 6bd1 c520 f23f d132 84f8 6105 e8bf
000000f0: 6d9d 3cc3 8ab4 e4bf 4908 0d95 6aa4 03c0
00000100: bcc6 58e2 2edf e73f 852c f8a0 8927 e1bf
00000110: 4a84 95d4 eae8 f43f 4160 07af d10f e8bf
00000120: 9878 ebf8 ade5 f63f 7a6b 9c4a a736 ed3f
00000130: 3284 2033 511d dabf ddc7 604e 1472 f13f
00000140: 7646 fcbd a2a7 cdbf 1c13 464b ebdc c1bf
00000150: 0a7d 9df3 ffee f53f e265 915d 5b09 e3bf
00000160: 4162 3b02 c1be d33f f308 0bd2 1e0a f73f
00000170: db26 f175 eb30 f0bf 94fb 45d4 21a1 e53f
00000180: 564d d0b9 c087 e53f cab1 4ef5 aa12 f0bf
00000190: a3e0 7dbe 7f00 02c0 3a9a 8a5e 3bb4 01c0
000001a0: 7ac4 e4ce 4c7f ec3f 5e5e b7ee ff40 e03f
000001b0: 15c1 3979 aa60 c0bf 5e20 1cec 5ac6 debf
000001c0: d61b 6752 ebfd e93f 210f 561c 25be e0bf
000001d0: be9a cd0f 682c e43f e8ee 05bc 3362 d0bf
000001e0: 46da b858 6cdf f23f 3e57 0a6b e9b3 e33f
000001f0: 10b5 1af9 3b3c d1bf 5649 f928 8ef2 e2bf
00000200: 9635 c34c 5d78 f63f be7c a37e 6ac2 e33f
00000210: 3f23 e63e adfb 03c0 71be a13f e2fc d6bf
00000220: abc0 94cc 3024 e13f 5279 f03b 4996 d2bf
00000230: 91a1 90e9 8c18 b9bf 9c16 865b d306 fcbf
00000240: 1414 d8a7 8672 ed3f 5669 4aac 41c1 eabf
00000250: 8620 8549 0d51 f43f
