params/model_5_trained.npy (npy, 728 bytes, 1 tensors)

array f8 [75]
0	0xbfc380ad78a6eb5d	-0.15236442939007136
1	0x3ff90b808717ebbd	1.5653081204497845
2	0x3ff8d4ed6f1ca37e	1.5519842472369585
3	0xbf9c2a9bedf2dd23	-0.02750629081557777
4	0xbfb8485dcd41e87b	-0.09485422383468915
5	0xc0013c542a3c55d0	-2.154457406965527
6	0x3f9c9809f1e1965c	0.027923732174164648
7	0xbffb03a56a01cbbf	-1.6883901730441122
8	0xbfd8744b65098748	-0.3820980536166769
9	0xbfffb5ecacced6d5	-1.9819151640235095
10	0xbfa8f81dcb49a84a	-0.04876797777690507
11	0x3fd3cd07f356c6ad	0.3093891025883789
12	0x3ffcf2de8274a601	1.8092942329334394
13	0x3ff81b456e5f2488	1.5066580115692734
14	0xbfd6806e822c006e	-0.35158884727571305
15	0x40043f569c37051d	2.530926914624287
16	0xc008df282ab6826e	-3.108963330931423
17	0x3ff7340b541a2bf6	1.4502061162227142
18	0xbf7a1595e9db78c7	-0.006368241881970777
19	0x3fe221d8263ddfe9	0.5666313883693849
20	0xbf7d1c26265c1446	-0.007106923125097591
21	0xbfef92ab17388008	-0.9866538480309837
22	0xbfa1799478924397	-0.034130706518346425
23	0x3fef32c2b8c779cb	0.974946366211776
24	0x3ffc0f560d6bc9e9	1.753744175363517
25	0x3ff9d599938cbc28	1.6146484149610476
26	0x3ffa5150271c10cf	1.6448518302650432
27	0xbff653ff677f7380	-1.395507244385243
28	0xbf979284a974e30f	-0.023019860117730547
29	0xbfe04be57dec5d6d	-0.5092647036971535
30	0x3fedd385739e3e3e	0.9320704706351035
31	0xbff2cb7ca4002b4c	-1.1746794134403045
32	0x3ff6bf76faf2f133	1.4217443278021846
33	0xbfd2fe001a60c237	-0.29675295425389286
34	0x40073de3b736e6b7	2.9052194894437338
35	0x3ff4814ac3552dfa	1.2815654401955485
36	0xc013e7a5aac4e843	-4.976217907207743
37	0xbfeb45860de5dfb5	-0.8522367736286386
38	0x3ff3265d5d3f63ea	1.1968663828358737
39	0x400a16d2089954a1	3.2611427947800427
40	0x3ff9b42e05e5c35a	1.6064892034884992
41	0x40075da014b4e393	2.9207154863074236
42	0xbfe0d302f1a9f5cf	-0.5257582397459205
43	0xbffd938cfb0a926f	-1.8485231214810047
44	0x4009f9c3853fe93f	3.246954957020676
45	0xbfd647cf046fc0bb	-0.34813285287146883
46	0xbffe8a04b637aa85	-1.9086958997601482
47	0x3fd6cc85bb5fcf29	0.35623305605189387
48	0xbff1a35fcb5288bd	-1.102386278370019
49	0x3fa2446dfa4a268e	0.035678326418815506
50	0xbfd2d561c5f85933	-0.2942737992574564
51	0x3fe2d52fc07e1d7d	0.588523746454413
52	0xc00031f66024c81f	-2.024395705339898
53	0x3ff51ae6feb92be5	1.3190679502611087
54	0xbf6086966a388a6b	-0.0020173013488300937
55	0x3fb5ea68608cbea8	0.08560802800343004
56	0xbf923db282e666a2	-0.01781348155927865
57	0x3ff77423183a8461	1.4658537813595773
58	0x3fe1f29eefd02e1c	0.5608668025828965
59	0xc002b94cd803b236	-2.3404785991790744
60	0x3fc62048692c2dfb	0.17286019454364507
61	0x3ffa869a5df85bc9	1.6578620596608167
62	0xbff93a8bb4741e8f	-1.5767933892219934
63	0xbfff8767910dfd55	-1.9705577532002583
64	0x3fef36abc6c0b340	0.9754237062348707
65	0x3fe4b5a7da963f76	0.6471747655177598
66	0x3fbadd60ea558ef4	0.10494046898889647
67	0xbfa52ecedde75989	-0.04137274225984117
68	0xbf9d54d1357b2411	-0.028643864526007038
69	0xbfece1af87afdc33	-0.9025495195518317
70	0xbff6b1ffd6dc986e	-1.4184568779978934
71	0xbff672dbb819cd8c	-1.4030415717541898
72	0xbff499e119676f73	-1.2875681869836313
73	0xbfe04a54e700bb31	-0.5090736877226388
74	0x3fe12e658d63c374	0.5369136582868195
